…
u03b5T=500, buffer_size=10000, batch_size=32).interact() \n</code></pre> <pre><code>--------------------- \ud83e\udde0  DQN is being set up \ud83e\udde0 -----------------------\nmodel for Q network is being loaded from disk........!\nmodel for Q network is being loaded from disk........!\nModel: \"model_4\"\n_________________________________________________________________\n Layer (type)                Output Shape              Param #   \n=================================================================\n input_5 (InputLayer)        [(None, 84, 84, 1)]       0\n\n conv2d_12 (Conv2D)          (None, 20, 20, 32)        2080\n\n conv2d_13 (Conv2D)          (None, 9, 9, 64)          32832\n\n conv2d_14 (Conv2D)          (None, 7, 7, 64)          36928\n\n flatten_4 (Flatten)         (None, 3136)              0\n\n dense_8 (Dense)             (None, 512)               1606144\n\n dense_9 (Dense)             (None, 3)                 1539\n\n=================================================================\nTotal params: 1679523 (6.41 MB)\nTrainable params: 1679523 (6.41 MB)\nNon-trainable params: 0 (0.00 Byte)\n_________________________________________________________________\nassigning weights for target network.....\n1/1 [==============================] - 0s 80ms/step\n1/1 [==============================] - 0s 81ms/step\n...\n<
…
